Model: "model"
_________________________________________________________________
Layer (type)                 Output Shape              Param #   
=================================================================
time_distributed_input (Inpu [(None, 120, 8, 80, 1)]   0         
_________________________________________________________________
time_distributed (TimeDistri (None, 120, 6, 78, 8)     80        
_________________________________________________________________
time_distributed_1 (TimeDist (None, 120, 6, 78, 8)     0         
_________________________________________________________________
time_distributed_2 (TimeDist (None, 120, 6, 78, 8)     32        
_________________________________________________________________
time_distributed_3 (TimeDist (None, 120, 4, 76, 16)    1168      
_________________________________________________________________
time_distributed_4 (TimeDist (None, 120, 4, 76, 16)    0         
_________________________________________________________________
time_distributed_5 (TimeDist (None, 120, 4, 76, 16)    64        
_________________________________________________________________
time_distributed_6 (TimeDist (None, 120, 2, 38, 16)    0         
_________________________________________________________________
time_distributed_7 (TimeDist (None, 120, 1216)         0         
_________________________________________________________________
lstm (LSTM)                  (None, 120, 32)           159872    
_________________________________________________________________
dropout (Dropout)            (None, 120, 32)           0         
_________________________________________________________________
lstm_1 (LSTM)                (None, 32)                8320      
_________________________________________________________________
dropout_1 (Dropout)          (None, 32)                0         
_________________________________________________________________
dense (Dense)                (None, 256)               8448      
_________________________________________________________________
dropout_2 (Dropout)          (None, 256)               0         
_________________________________________________________________
dense_1 (Dense)              (None, 31)                7967      
=================================================================
Total params: 185,951
Trainable params: 185,903
Non-trainable params: 48
_________________________________________________________________
Epoch 1/2000
  1/218 [..............................] - ETA: 28:32 - loss: 3.4598 - accuracy: 0.0547
…
