Model: "model"
_________________________________________________________________
Layer (type)                 Output Shape              Param #   
=================================================================
time_distributed_input (Inpu [(None, 120, 8, 64, 2)]   0         
_________________________________________________________________
time_distributed (TimeDistri (None, 120, 6, 62, 8)     152       
_________________________________________________________________
time_distributed_1 (TimeDist (None, 120, 6, 62, 8)     0         
_________________________________________________________________
time_distributed_2 (TimeDist (None, 120, 6, 62, 8)     32        
_________________________________________________________________
time_distributed_3 (TimeDist (None, 120, 4, 60, 16)    1168      
_________________________________________________________________
time_distributed_4 (TimeDist (None, 120, 4, 60, 16)    0         
_________________________________________________________________
time_distributed_5 (TimeDist (None, 120, 4, 60, 16)    64        
_________________________________________________________________
time_distributed_6 (TimeDist (None, 120, 2, 30, 16)    0         
_________________________________________________________________
time_distributed_7 (TimeDist (None, 120, 960)          0         
_________________________________________________________________
lstm (LSTM)                  (None, 120, 32)           127104    
_________________________________________________________________
dropout (Dropout)            (None, 120, 32)           0         
_________________________________________________________________
lstm_1 (LSTM)                (None, 32)                8320      
_________________________________________________________________
dropout_1 (Dropout)          (None, 32)                0         
_________________________________________________________________
dense (Dense)                (None, 256)               8448      
_________________________________________________________________
dropout_2 (Dropout)          (None, 256)               0         
_________________________________________________________________
dense_1 (Dense)              (None, 31)                7967      
=================================================================
Total params: 153,255
Trainable params: 153,207
Non-trainable params: 48
_________________________________________________________________
Epoch 1/2000
  1/218 [..............................] - ETA: 26:16 - loss: 3.4553 - accuracy: 0.0312
…
